model_toxicity.tflite (tflite, 770678 bytes, 5 tensors)

sequential_2/embedding_2/embedding_lookup/196660 f4 [10003, 16]
-0.15038994 0.8376342 0.2504437 -0.085683964 -0.18656217 -0.17609864 -0.10148681 -0.19513379
0.0911419 0.60652685 -0.08254143 0.07296381 1.0038881 -0.011627213 -0.999609 -0.033037238
0.44166815 -1.0350144 -0.39767918 0.3696961 0.8384425 0.29256973 0.42097068 -0.15308224
-0.33251703 -1.0682532 0.35397434 0.10280204 -1.1566298 0.38247803 1.2340823 0.21081044
0.52990353 -1.2179922 -0.69793457 0.34171128 0.6403439 0.18650493 0.61244315 -0.12062176
-0.18265556 -1.1302294 0.12212724 -0.17534591 -1.361858 0.2506477 1.382136 0.24079117
0.65055996 -0.6611121 -0.7295814 0.12186049 0.79067963 0.5681484 0.91775554 -0.27330637
-0.52195334 -0.9976367 0.53981507 0.4858296 -0.4700932 0.42970127 0.7932124 0.56954527
0.5010803 -1.4132495 -0.8099435 0.1850548 1.0909585 0.39497927 0.8090038 0.04710606
-0.28931075 -1.7433507 0.4625789 0.018658552 -1.4382911 0.47607148 1.8258759 0.27882072
0.7455652 -1.1748796 -0.8603929 0.39040917 0.9424109 0.59997064 1.0841377 -0.30603114
-0.6089302 -1.4668864 0.59419936 0.3988293 -1.1363827 0.6320592 1.4005215 0.59286565
0.951163 -2.9470775 -1.2223067 0.68890244 1.7958549 0.8524075 1.4091612 -0.037624378
-0.7971171 -3.0595493 0.94059885 -0.061485138 -3.2032828 0.90716463 3.4516413 0.5820894
1.7829801 -3.1565158 -1.7270229 0.98054427 2.1970716 1.6165694 2.1378691 -0.7357883
-1.6084055 -3.1781588 1.662572 1.056001 -3.1838539 1.4631696 3.244315 1.583885
1.614393 -4.499684 -1.6733086 0.76986945 2.8011503 1.5932183 1.9999918 0.024549674
-1.5251523 -4.3562875 1.9001726 0.22915202 -4.7704124 1.2605985 5.057168 1.2241225
0.49204126 -0.8977166 -0.83106333 0.07568283 0.7888969 0.5419608 0.8482458 -0.27610108
-0.5400425 -1.0864999 0.634368 0.35478187 -0.79520345 0.5173125 0.95209867 0.6150848
0.6459472 -1.2466388 -0.70088446 0.4437824 1.0257828 0.41064867 0.78716373 -0.13918819
-0.47734907 -1.5567175 0.5233773 0.037438195 -1.2271805 0.5885306 1.5146757 0.36647585
0.2988406 -0.9609787 -0.5300643 0.15798143 0.8749193 0.2659063 0.6971457 -0.034972884
-0.18859099 -1.2462885 0.29888818 0.10332162 -0.9819217 0.45714796 1.2211335 0.2607412
0.23026808 0.21284579 -0.08327477 -0.12484284 0.3465452 0.14380626 0.551288 -0.18077548
-0.2500359 -0.2413569 0.22608505 0.36122054 0.47337976 0.117989495 -0.10139324 0.25831905
-0.02787943 -0.081582606 -0.16893303 -0.07487036 0.5165043 -0.03250256 0.25433087 0.08288767
0.09715133 -0.50642926 0.017648641 -0.13799904 0.07212048 0.12589492 0.40750936 -0.024911845
-0.23205025 0.24412711 0.1897383 -0.16872926 0.3249517 -0.15453759 0.15417378 0.13011287
0.16258211 -0.26583502 -0.0013398889 -0.100812465 0.2796147 0.089839965 0.1471742 -0.11903788
0.55992824 -1.2761295 -0.75958174 0.16208531 0.8441385 0.36266822 0.83254904 0.016137103
-0.39028352 -1.5622177 0.50219184 -0.0055502052 -1.3119876 0.5644727 1.5778908 0.2686777
00000000: d2ff 19be 326f 563f 283a 803e 137b afbd
00000010: 270a 3fbe 3453 34be 51d8 cfbd 27d1 47be
00000020: 9ba8 ba3d 5845 1b3f 7b0b a9bd 0d6e 953d
00000030: 687f 803f 1180 3ebc 60e6 7fbf 0e52 07bd
00000040: 5422 e23e 5a7b 84bf 9b9c cbbe cf48 bd3e
00000050: 2ba4 563f b3cb 953e 7889 d73e 97c1 1cbe
00000060: ac3f aabe 85bc 88bf 203c b53e e089 d23d
00000070: 720c 94bf 29d4 c33e 69f6 9d3f b1de 573e
00000080: c2a7 073f 2be7 9bbf d7ab 32bf c8f4 ae3e
00000090: 94ed 233f 26fb 3e3e 13c9 1c3f 8b08 f7bd
000000a0: 0f0a 3bbe 5bab 90bf d91d fa3d e18d 33be
000000b0: 5d51 aebf e554 803e d5e9 b03f f691 763e
000000c0: 198b 263f a53e 29bf d9c5 3abf fe91 f93d
000000d0: fb69 4a3f 2c72 113f 07f2 6a3f d0ee 8bbe
000000e0: bc9e 05bf 1e65 7fbf 5231 0a3f a8be f83e
000000f0: 0eb0 f0be ce01 dc3e f80f 4b3f b8cd 113f
00000100: cc46 003f 5ce5 b4bf 7558 4fbf 017f 3d3e
00000110: 87a4 8b3f b93a ca3e df1a 4f3f 49f2 403d
00000120: 8a20 94be 1e26 dfbf 24d7 ec3e d2d9 983c
00000130: ec19 b8bf a4bf f33e 4db6 e93f 97c1 8e3e
00000140: 5cdd 3e3f 7462 96bf b642 5cbf b6e3 c73e
00000150: d741 713f ad97 193f 06c5 8a3f 1db0 9cbe
00000160: d9e2 1bbf efc2 bbbf 731d 183f 5b33 cc3e
00000170: fd74 91bf a2ce 213f 4a44 b33f 0bc6 173f
00000180: 6b7f 733f eb9c 3cc0 8c74 9cbf e95b 303f
00000190: 93de e53f 6137 5a3f 655f b43f 051c 1abd
000001a0: de0f 4cbf a8cf 43c0 16cb 703f d7d7 7bbd
000001b0: 9602 4dc0 f13b 683f b1e7 5c40 d003 153f
000001c0: b138 e43f 5b04 4ac0 160f ddbf f304 7b3f
000001d0: d29c 0c40 bfeb ce3f d9d2 0840 9f5c 3cbf
000001e0: 3be0 cdbf f466 4bc0 29cf d43f 0a2b 873f
000001f0: 43c4 4bc0 2449 bb3f dba2 4f40 bebc ca3f
00000200: 6ea4 ce3f 69fd 8fc0 fa2e d6bf 2a16 453f
00000210: 0c46 3340 94ee cb3f bbff ff3f 661c c93c
00000220: 3138 c3bf b566 8bc0 db38 f33f d4a6 6a3e
00000230: 38a7 98c0 4b5b a13f 52d4 a140 0cb0 9c3f
00000240: d5ec fb3e c1d0 65bf 91c0 54bf 99ff 9a3d
00000250: 26f5 493f f1bd 0a3f a326 593f 1f5d 8dbe
00000260: 3a40 0abf 6e12 8bbf f165 223f f8a5 b53e
00000270: 7492 4bbf 986e 043f bdbc 733f 3376 1d3f
00000280: cc5c 253f dc91 9fbf 2a6d 33bf 7237 e33e
00000290: da4c 833f 8b40 d23e 9083 493f 5987 0ebe
000002a0: 1967 f4be 8542 c7bf 0efc 053f cb58 193d
000002b0: 4014 9dbf f1a9 163f e5e0 c13f b9a2 bb3e
000002c0: a301 993e b302 76bf 4bb2 07bf e2c5 213e
000002d0: b6fa 5f3f df24 883e 2478 323f ba3f 0fbd
000002e0: ff1d 41be 6286 9fbf df07 993e 499a d33d
000002f0: 385f 7bbf 4c0f ea3e 1a4e 9c3f df7f 853e
00000300: 65cb 6b3e 3ff4 593e f68b aabd 9aad ffbd
00000310: 5f6e b13e f341 133e 3621 0d3f 351d 39be
00000320: b504 80be 4326 77be d782 673e e6f1 b83e
00000330: d55e f23e 7aa4 f13d 42a7 cfbd 6542 843e
00000340: 6763 e4bc c814 a7bd c8fc 2cbe a255 99bd
00000350: a039 043f 6821 05bd a837 823e 03c1 a93d
00000360: 47f7 c63d 59a5 01bf e293 903c 9f4f 0dbe
00000370: e7b3 933d 99ea 003e 11a5 d03e ed13 ccbc
00000380: 959e 6dbe 75fc 793e c24a 423e 5dc7 2cbe
00000390: 1260 a63e 1a3f 1ebe bbdf 1d3e 4f3c 053e
000003a0: ed7b 263e 871b 88be 369f afba c476 cebd
000003b0: a829 8f3e 04fe b73d d5b4 163e 22ca f3bd
000003c0: 7557 0f3f 3658 a3bf f373 42bf b1f9 253e
000003d0: 7619 583f a6af b93e ef21 553f f531 843c
000003e0: 3ed3 c7be c0f6 c7bf a58f 003f 7fde b5bb
000003f0: 36ef a7bf 4881 103f 53f8 c93f 2090 893e

sequential_2/dense_5/BiasAdd/ReadVariableOp/resource f4 [2]
1.1687582 -1.1687585
00000000: de99 953f e199 95bf

sequential_2/dense_4/BiasAdd/ReadVariableOp/resource f4 [16]
-0.7519936 -0.17408639 -0.7805608 0.29411715 -0.09643826 -0.8317792 -0.7050642 0.5434205
-0.12667654 -0.081253864 0.116698414 -0.8601233 -0.12590507 0.3155662 -0.7386252 -0.16038841
00000000: a782 40bf b443 32be d5d2 47bf 8696 963e
00000010: 6c81 c5bd 7bef 54bf 167f 34bf 9b1d 0b3f
00000020: 7fb7 01be 6d68 a6bd 94ff ee3d 0a31 5cbf
00000030: 42ed 00be e591 a13e 8b16 3dbf dc3c 24be

sequential_2/dense_4/MatMul f4 [16, 16]
-0.17864326 0.3584106 0.028789394 0.48077393 0.27398854 -0.024874194 -0.1852536 -0.60935336
0.494567 -0.05765265 0.32763126 -0.1591898 0.4376277 0.47626173 -0.028577527 -0.052518226
0.11828627 0.020700365 0.14830565 -0.03413086 0.3615748 0.32683724 0.018920701 -0.17554763
0.25387788 -0.03379806 0.2804617 0.22477618 0.2522752 -0.37395358 0.11582178 -0.29902348
0.3212645 -0.023691023 -0.23595689 0.34473225 0.17366275 -0.026672937 -0.025498383 -0.81404865
0.5022621 0.12503713 0.066057354 0.0026846007 0.2923952 0.39078015 -0.46978614 -0.3596561
0.07021421 0.40134966 -0.26054522 -1.1112932 -0.85955185 0.9137948 0.4264234 1.3050976
-1.9415524 -0.10028439 0.26997957 -0.9462054 0.01634544 -0.7376487 0.030414738 0.47377563
0.09448823 0.27271372 0.0828484 0.22396642 -0.16105598 0.9836026 0.97139823 0.050554547
-2.288267 0.27979034 0.4018546 0.7250608 -0.11853771 0.23282374 -0.35337618 2.2923026
-0.015800556 0.22060068 0.4752527 0.7275114 0.08896439 0.032541335 0.1207531 -0.5538397
0.9895589 0.23610877 0.19956239 0.033011537 0.38754627 0.03980436 -0.021112366 0.38947865
-0.14656545 0.29176185 0.44051126 0.33451948 0.7160171 -0.5180947 0.025875973 -0.90734875
0.7235637 -0.06988624 -0.11891924 0.08802968 -0.08990174 0.12051499 -0.3537215 0.21773852
-0.31110805 -0.107611254 0.62701684 -0.68758374 -0.23879763 0.66502136 0.116111234 1.001642
-1.8451971 -0.08546485 0.52737164 -0.263479 -0.10387543 -0.9085967 0.047167752 0.028732901
-0.25989252 0.17946191 0.271505 0.40274802 0.16133921 -0.2899175 0.08402175 0.05684347
0.1966487 0.22049414 0.07872558 0.13219565 -0.04248454 0.18370438 0.21425049 0.40327474
0.010472048 -0.06505539 0.17328435 0.2189695 -0.39638332 0.5739884 0.7244899 0.22394016
-2.3202748 0.07192251 0.18527009 1.0686231 0.27898225 -0.13573028 -0.2420354 2.3797848
0.16411136 -0.22720847 -0.5378544 -0.5255714 -0.19187456 1.3223035 0.23439895 0.56784314
-1.8866574 0.18164872 0.48036844 -1.1720669 0.30888885 -0.7843271 -0.47498307 0.84252894
-0.1932141 0.2880505 0.034010395 0.8589705 0.30044314 -0.10712277 0.031405766 -0.7164062
0.6353451 -0.10546286 -0.3658091 -0.29526645 0.17356592 0.11254539 -0.45907843 -0.24530151
-0.026816992 0.16722673 -0.2694547 -0.38081598 -0.07596369 0.7536735 1.4211266 -0.13044956
-1.917197 0.055294838 0.24997696 0.9672314 0.05169978 -0.3444177 -0.44676176 2.6735058
0.26365262 0.0028794021 -0.14055207 -1.0996356 -0.39414537 1.019088 0.1504306 1.2877604
-1.3039175 -0.025298586 -0.1701964 -0.3794448 0.37698397 -0.39529872 0.15746358 0.45156175
0.4124411 -0.088946015 0.09193595 0.5116616 0.037790142 -0.52340597 -0.09090836 -0.887354
0.19816548 0.31751445 0.016715316 -0.6070538 0.3626806 0.17026454 -0.14781308 -0.2572724
0.3147047 0.16233067 0.057216 0.06886676 -0.5679676 1.301681 1.0275989 0.31494364
-1.7000592 0.45041198 0.6789444 0.56293905 0.2982389 -0.28053892 -0.06320652 2.2147808
00000000: 42ee 36be 9881 b73e bcd7 eb3c 0028 f63e
00000010: 3a48 8c3e f7c4 cbbc 1fb3 3dbe 95fe 1bbf
00000020: e337 fd3e 2f25 6cbd 49bf a73e a702 23be
00000030: bd10 e03e 94d8 f33e 6b1b eabc 5a1d 57bd
00000040: 1240 f23d d093 a93c 70dd 173e cdcc 0bbd
00000050: 5520 b93e 3657 a73e 96ff 9a3c c2c2 33be
00000060: 48fc 813e d66f 0abd ad98 8f3e ba2b 663e
00000070: 372a 813e d876 bfbe f833 ed3d 9b19 99be
00000080: c87c a43e ad13 c2bc af9e 71be bf80 b03e
00000090: a6d4 313e 3481 dabc fce1 d0bc 7e65 50bf
000000a0: 4094 003f bc09 003e 1449 873d 20f0 2f3b
000000b0: d3b4 953e 5614 c83e cf87 f0be d824 b8be
000000c0: 78cc 8f3d b47d cd3e 2f66 85be db3e 8ebf
000000d0: 970b 5cbf 75ee 693f 2b54 da3e 700d a73f
000000e0: ca84 f8bf e761 cdbd c33a 8a3e 843a 72bf
000000f0: dfe6 853c 8cd6 3cbf 5428 f93c b892 f23e
00000100: 0c83 c13d 22a1 8b3e 6cac a93d 7457 653e
00000110: dceb 24be 61cd 7b3f 8ead 783f 4912 4f3d
00000120: f772 12c0 ae40 8f3e e3bf cd3e 969d 393f
00000130: e6c3 f2bd 5969 6e3e b9ed b4be 16b5 1240
00000140: 2b70 81bc 25e5 613e 5254 f33e 303e 3a3f
00000150: f632 b63d 104a 053d 674d f73d 70c8 0dbf
00000160: bb53 7d3f 7fc6 713e 155a 4c3e 1b37 073d
00000170: 776c c63e e609 233d d7f3 acbc bf69 c73e
00000180: 4115 16be cf61 953e b18a e13e 2346 ab3e
00000190: e64c 373f dba1 04bf d9f9 d33c 0248 68bf
000001a0: 783b 393f 8420 8fbd ee8b f3bd e848 b43d
000001b0: 671e b8bd 90d0 f63d fc1a b5be d9f6 5e3e
000001c0: 8e49 9fbe 4a63 dcbd 2d84 203f 7d05 30bf
000001d0: 5e87 74be d73e 2a3f bacb ed3d ce35 803f
000001e0: 6b2f ecbf 3208 afbd d401 073f b8e6 86be
000001f0: a4bc d4bd cb99 68bf f932 413d 4361 eb3c
00000200: a210 85be ddc4 373e b402 8b3e fd34 ce3e
00000210: 1b36 253e 1170 94be 9813 ac3d b3d4 683d
00000220: 475e 493e 37c9 613e e03a a13d 4c5e 073e
00000230: 4504 2ebd 001d 3c3e 7b64 5b3e 077a ce3e
00000240: f492 2b3c c33b 85bd 7471 313e 8a39 603e
00000250: c1f2 cabe e7f0 123f 2c78 393f 9250 653e
00000260: 627f 14c0 1c4c 933d 71b7 3d3e a4c8 883f
00000270: c3d6 8e3e e1fc 0abe 21d8 77be 654e 1840
00000280: cf0c 283e 56a9 68be d3b0 09bf d98b 06bf
00000290: c47a 44be 3e41 a93f 4706 703e 2b5e 113f
000002a0: fd7d f1bf 1f02 3a3e daf2 f53e 4a06 96bf
000002b0: ae26 9e3e a9c9 48bf fb30 f3be faaf 573f
000002c0: ebd9 45be 5b7b 933e 7c4e 0b3d 7ee5 5b3f
000002d0: afd3 993e 2f63 dbbd 55a3 003d 6666 37bf
000002e0: faa5 223f e9fc d7bd 554b bbbe 2a2d 97be
000002f0: 44bb 313e 337e e63d 540c ebbe 5230 7bbe
00000300: 4faf dbbc 7c3d 2b3e f7f5 89be 50fa c2be
00000310: da92 9bbd bff0 403f 7ae7 b53f 9294 05be
00000320: b666 f5bf d77c 623d f6f9 7f3e 7a9c 773f
00000330: 26c3 533d 8457 b0be f5bd e4be b81a 2b40
00000340: 7afd 863e 5ab4 3c3b e2ec 0fbe dcc0 8cbf
00000350: 6ccd c9be 7a71 823f 7b0a 1a3e 55d5 a43f
00000360: c5e6 a6bf fb3e cfbc f747 2ebe 9746 c2be
00000370: 0b04 c13e 9864 cabe 223e 213e 1a33 e73e
00000380: 7b2b d33e 5429 b6bd ea48 bc3d 41fc 023f
00000390: d6c9 1a3d effd 05bf 2a2e babd a229 63bf
000003a0: e4eb 4a3e 4191 a23e 8fee 883c e167 1bbf
000003b0: 46b1 b93e d459 2e3e 505c 17be 35b9 83be
000003c0: f920 a13e 033a 263e 535b 6a3d 040a 8d3d
000003d0: 5366 11bf 7c9d a63f 5c88 833f 4b40 a13e
000003e0: 8a9b d9bf 669c e63e 4dcf 2d3f c61c 103f
000003f0: c5b2 983e cca2 8fbe 6c72 81bd f8be 0d40

sequential_2/dense_5/MatMul f4 [2, 16]
2.066599 -0.31122786 1.6669688 -3.8068602 -2.5209653 0.9314418 2.010566 -2.1899166
-0.09020673 -2.2254827 -2.571521 0.54039925 -2.2369022 -2.5092094 0.94499904 -2.6730745
-1.686892 0.20633651 -1.6261774 3.117028 1.442936 -1.4472829 -1.377472 2.6034458
0.13072032 2.3484411 2.1058161 -0.90257317 1.927257 2.9556367 -0.8177603 2.697042
00000000: 2843 0440 4259 9fbe 3c5f d53f 99a3 73c0
00000010: 7f57 21c0 f872 6e3f 1dad 0040 9827 0cc0
00000020: 4ebe b8bd 4f6e 0ec0 cd93 24c0 9b57 0a3f
00000030: 6829 0fc0 e396 20c0 75eb 713f a713 2bc0
00000040: 14ec d7bf e149 533e 9526 d0bf 637d 4740
00000050: 20b2 b83f 9140 b9bf 0151 b0bf db9e 2640
00000060: 8cdb 053e dc4c 1640 b1c5 0640 090f 67bf
00000070: 5bb0 f63f 2729 3d40 bd58 51bf 569c 2c40
